data.pth (torch, 5439 bytes, 6 tensors)

l1.weight f4 [8, 63]
0.047942758 0.29119176 0.12099975 -0.23926347 0.38785645 -0.2044914 0.48869815 0.888461
0.26219144 0.3221375 -0.06468329 0.19120745 -0.27869412 -0.14611684 0.5588228 -0.06820618
-0.25888586 -0.24596852 0.2393067 -0.09338424 0.75809336 -0.37213564 -0.37206742 -0.37206864
0.34225833 -0.37205613 0.342583 -0.1280139 0.14187177 -0.13297412 -0.19700325 0.2959128
0.32039073 -0.37923166 0.18100649 -0.09841364 0.27184653 0.14839749 0.4540653 0.36675206
0.34781155 0.37024522 0.06639965 0.44989488 -0.25810644 0.32394034 0.62524897 0.5882747
-0.31671202 -0.19058408 -0.05615348 -0.24981794 0.33695576 -0.15378328 0.11076545 -0.22550371
0.17369029 0.16205353 0.5545292 -0.20194057 -0.21587697 0.30726337 0.3052366 0.2928542
0.5477289 0.2571954 -0.23857753 -0.026998935 0.42071286 0.19662957 -0.58409977 0.28535038
0.14636187 0.20742166 0.17938691 0.3642548 0.534838 -0.07431571 0.52687657 0.38810754
0.35977837 -0.36099097 0.25002825 -0.5940802 0.41072416 0.47673672 0.5079899 0.22670346
0.53210574 0.26860857 0.37822068 0.56336313 -0.35870323 0.38318205 -0.2393246 0.5283822
0.0771488 0.28878877 0.18807298 -0.08879643 0.24256952 0.47733313 0.5999569 -0.43292567
0.5539991 0.1593611 -0.38652587 0.2954796 -0.13460428 -0.44733867 -0.44703937 0.39205235
-0.08046737 0.34730408 0.3547107 -0.022436311 -0.5972804 0.44975182 0.26669028 0.23202676
0.6115829 0.00047956948 0.34030935 0.40802968 -0.04957536 -0.34318563 -0.099368624 0.04245471
0.22726484 0.30102062 0.35151616 -0.13348058 0.26777288 0.66214186 0.10818793 0.0670219
-0.08803819 0.19881108 0.030868983 -0.26106045 0.47102955 -0.107224524 -0.16772294 -0.11417686
0.25615957 0.09218597 0.6766658 0.03249121 0.07931526 0.11402721 0.27055046 0.11016798
-0.025554476 -0.36355758 -0.3687125 0.2866852 -0.254454 0.390698 0.18714157 0.3166296
-0.00016124954 -0.18131624 0.343794 0.04940647 0.12540789 -0.0736237 0.3929175 0.2909163
-0.06365962 0.50313014 -0.40431312 0.30407962 0.28991824 0.35896492 -0.20278277 0.13337673
-0.10171457 -0.20704868 0.23689847 0.24905136 -0.041984446 -0.11164915 -0.052581307 -0.28545308
0.46979395 -0.12121462 -0.29060808 0.44478676 0.53566176 0.20388268 -0.31057936 -0.15435214
0.61791223 -0.041156117 0.376894 -0.24524026 -0.8375908 0.038118016 -0.16007946 -0.3566056
-0.05634983 0.38944125 0.45945567 -0.4555085 0.32957378 0.23398837 0.19239101 -0.44475687
0.4211514 -0.3606586 0.43831855 0.48136762 0.4455831 0.083756275 0.4980326 -0.32763904
0.39480215 -0.05866604 0.7145543 0.34247875 -0.35333565 -0.2611979 0.41697606 -0.014504407
-0.12957399 -0.18214196 0.005279364 -0.2984725 -0.14773047 -0.22467326 -0.37503803 -0.091511786
-0.07768865 0.17398977 -0.3879185 -0.67978996 -0.107477844 0.36479142 0.5602717 -0.20988296
0.332068 -0.3219736 0.9595812 0.026662158 0.19376692 -0.14847367 -0.5857367 -0.10423433
0.28600034 0.17709726 0.46903887 0.13603598 0.19209248 0.18291372 0.26949024 0.4869327
00000000: a05f 443d 1617 953e b8ce f73d 7c01 75be
00000010: 1f95 c63e 3266 51be a536 fa3e 2e72 633f
00000020: f53d 863e 35ef a43e ac78 84bd e3cb 433e
00000030: ffb0 8ebe a79f 15be 030f 0f3f afaf 8bbd
00000040: b08c 84be 2cdf 7bbe d10c 753e 3d40 bfbd
00000050: 6812 423f 9088 bebe 9f7f bebe c87f bebe
00000060: 7c3c af3e 247e bebe 0a67 af3e 1316 03be
00000070: d546 113e 5e2a 08be 38bb 49be e281 973e
00000080: 410a a43e a72a c2be c459 393e 178d c9bd
00000090: 782f 8b3e 83f5 173e 3f7b e83e edc6 bb3e
000000a0: 5b14 b23e c890 bd3e 8afc 873d 9f58 e63e
000000b0: 8726 84be 82db a53e 5110 203f 2c99 163f
000000c0: 1428 a2be 7928 43be 3101 66bd 46d0 7fbe
000000d0: 7785 ac3e 5d79 1dbe ffd8 e23d 72ea 66be
000000e0: dedb 313e 5cf1 253e a0f5 0d3f 82c9 4ebe
000000f0: da0e 5dbe a051 9d3e f947 9c3e fcf0 953e
00000100: f637 0c3f 1eaf 833e ab4d 74be df2c ddbc
00000110: ad67 d73e 4359 493e 9087 15bf 7219 923e
00000120: e3df 153e 5866 543e 34b1 373e 9b7f ba3e
00000130: 25eb 083f d632 98bd 62e1 063f 08b6 c63e
00000140: df34 b83e cfd3 b8be b403 803e a415 18bf
00000150: 704a d23e d616 f43e a00b 023f f424 683e
00000160: 1538 083f 1087 893e 24a6 c13e 9138 103f
00000170: f3a7 b7be 7030 c43e 8211 75be 0e44 073f
00000180: 3100 9e3d 1fdc 933e 3496 403e e7da b5bd
00000190: 2564 783e 0265 f43e c796 193f 6fa8 ddbe
000001a0: e3d2 0d3f 8e2f 233e b8e6 c5be 1a49 973e
000001b0: b4d5 09be 9309 e5be 58e2 e4be 16bb c83e
000001c0: 14cc a4bd d7d1 b13e a49c b53e 5bcc b7bc
000001d0: 5ee7 18bf df45 e63e a18b 883e 6c98 6d3e
000001e0: b290 1c3f ba6e fb39 073d ae3e 44e9 d03e
000001f0: 880f 4bbd 07b6 afbe c781 cbbd fde4 2d3d
00000200: 1db8 683e 601f 9a3e edf9 b33e 22af 08be
00000210: 8719 893e 2182 293f a291 dd3d c742 893d
00000220: 5e4d b4bd 2295 4b3e f3e0 fc3c b7a9 85be
00000230: c92a f13e 8898 dbbd 90bf 2bbe 8fd5 e9bd
00000240: 5927 833e ffcb bc3d f839 2d3f 8115 053d
00000250: 0a70 a23d 1987 e93d 9785 8a3e c09f e13d
00000260: 9f57 d1bc 3824 babe e3c7 bcbe 67c8 923e
00000270: cb47 82be 9109 c83e 0aa2 3f3e 461d a23e
00000280: 1815 29b9 f7aa 39be c405 b03e 705e 4a3d
00000290: ed6a 003e 06c8 96bd 7c2c c93e fbf2 943e
000002a0: fa5f 82bd 23cd 003f 2102 cfbe 53b0 9b3e
000002b0: 2a70 943e 40ca b73e 49a6 4fbe e993 083e
000002c0: ba4f d0bd 9204 54be 8395 723e 5207 7f3e
000002d0: e2f7 2bbd 4fa8 e4bd 7f5f 57bd e826 92be
000002e0: d588 f03e 5f3f f8bd 95ca 94be 17bb e33e
000002f0: 2121 093f 9fc6 503e 4204 9fbe 7d0e 1ebe
00000300: 7f2f 1e3f 5193 28bd 40f8 c03e 4320 7bbe
00000310: 5a6c 56bf a321 1c3d dfeb 23be 0295 b6be
00000320: 14cf 66bd d864 c73e c63d eb3e 6938 e9be
00000330: e5bd a83e a69a 6f3e 2602 453e 2cb7 e3be
00000340: 28a1 d73e 3ea8 b8be 4a6b e03e d175 f63e
00000350: 7823 e43e 6988 ab3d 21fe fe3e 4ec0 a7be
00000360: 8223 ca3e cd4b 70bd 08ed 363f 6059 af3e
00000370: 69e8 b4be bbbb 85be e37d d53e e4a3 6dbc
00000380: 0baf 04be 6c83 3abe 84fe ac3b 63d1 98be
00000390: a846 17be bf10 66be fc04 c0be 886a bbbd
000003a0: 3a1b 9fbd 602a 323e 419d c6be b706 2ebf
000003b0: 581d dcbd f1c5 ba3e f76d 0f3f 8feb 56be
000003c0: d104 aa3e b9d9 a4be 1da7 753f 996a da3c
000003d0: d66a 463e 7b09 18be d7f2 15bf cf78 d5bd
000003e0: a36e 923e fc58 353e dd25 f03e 044d 0b3e
000003f0: e4b3 443e bc4d 3b3e a0fa 893e 3e4f f93e

l1.bias f4 [8]
0.37210128 0.5972466 0.752139 1.0373511 0.29575127 0.30212927 0.6609657 0.84935594
00000000: 0f84 be3e 27e5 183f 2e8c 403f ecc7 843f
00000010: b66c 973e b0b0 9a3e 0c35 293f 646f 593f

l2.weight f4 [8, 8]
-0.1257747 -0.17383614 -0.36044452 -0.2798622 0.1185923 -0.26067716 0.20437013 -0.3278535
-0.020956943 0.21747991 0.5579984 0.7305714 -0.78120446 -0.96416014 0.73546165 0.9242631
-1.085435 0.5235518 -0.04581368 1.29842 0.69818616 0.5097752 -0.097263835 -0.11597425
-0.65914357 0.51621026 0.084991716 0.96994865 0.5097212 0.9711102 -0.15996858 -0.2774444
0.6329858 1.1915566 0.7046786 -0.5608632 -0.36170137 -0.06021221 1.0317253 0.2713258
0.5121795 -0.2973991 0.5612828 0.029138913 1.10656 1.036404 0.2086504 -0.19414017
0.36031958 0.9576684 -0.36823222 -0.9758526 0.0052208332 0.23040761 0.8650977 0.19376993
1.0643419 -1.3110746 0.9009323 0.1415378 0.64602137 0.5622279 -0.5456466 1.1051073
00000000: 15cb 00be 1a02 32be 2f8c b8be 194a 8fbe
00000010: 85e0 f23d 7a77 85be 6746 513e 6adc a7be
00000020: e5ad abbc 0eb3 5e3e fcd8 0e3f ba06 3b3f
00000030: 04fd 47bf 33d3 76bf 3747 3c3f 829c 6c3f
00000040: 89ef 8abf 7e07 063f 20a7 3bbd a032 a63f
00000050: 54bc 323f a180 023f 4332 c7bd e883 edbd
00000060: a2bd 28bf 5b26 043f 2310 ae3d 8e4e 783f
00000070: 177d 023f ae9a 783f cece 23be 310d 8ebe
00000080: 5b0b 223f ed84 983f d165 343f bb94 0fbf
00000090: ec30 b9be 14a1 76bd 930f 843f 37eb 8a3e
000000a0: 321e 033f b244 98be 3bb0 0f3f bbb4 ee3c
000000b0: c2a3 8d3f e3a8 843f 73a8 553e aecc 46be
000000c0: cf7b b83e c229 753f ef88 bcbe 7ad1 79bf
000000d0: 8613 ab3b f9ef 6b3e 0b77 5d3f a06b 463e
000000e0: 5b3c 883f 4bd1 a7bf 80a3 663f 49ef 103e
000000f0: a861 253f 2bee 0f3f 7faf 0bbf 2874 8d3f

l2.bias f4 [8]
-0.18150225 0.94548774 0.6392473 0.46611735 0.09395297 -0.32543942 -0.37625694 0.44723597
00000000: badb 39be 7c0b 723f b6a5 233f efa6 ee3e
00000010: 6a6a c03d ff9f a6be c0a4 c0be 1dfc e43e

l3.weight f4 [7, 8]
-0.009435409 -1.2447606 0.38624907 0.967594 -0.42118916 0.014078762 0.013744519 -0.7287797
0.31594115 0.55992854 -1.0175055 -1.4661806 0.3288394 -0.7471019 -0.87764716 0.8790503
0.17227547 0.7987385 0.13345926 0.4081368 0.4065769 -1.2391604 -1.008111 -1.3327954
-0.17601112 0.31151167 -0.94230676 -1.284849 0.72166497 -0.8592238 0.7467913 -0.9898352
0.14065163 -0.7434542 -0.76963544 -0.7988256 0.3546475 0.5075813 0.5426661 0.00035945728
0.21852124 -1.3516384 -0.58860576 -0.09463466 -0.3363103 0.61577135 -1.148006 0.65395504
0.23710868 0.16901183 0.3143101 0.24746071 -1.7411819 -0.048156857 -0.36999208 0.4456106
00000000: f996 1abc 5154 9fbf 70c2 c53e 3eb4 773f
00000010: 1ba6 d7be 9caa 663c b130 613c 4e91 3abf
00000020: 0ac3 a13e 7a57 0f3f 9f3d 82bf ceab bbbf
00000030: a35d a83e 1242 3fbf 7cad 60bf 7109 613f
00000040: fb68 303e 207a 4c3f 8ba9 083e 4ff7 d03e
00000050: d92a d03e cf9c 9ebf c809 81bf 0a99 aabf
00000060: 423c 34be 757e 9f3e 043b 71bf ef75 a4bf
00000070: 09bf 383f 17f6 5bbf b72d 3f3f d765 7dbf
00000080: fb06 103e 0453 3ebf d406 45bf d67f 4cbf
00000090: 5b94 b53e d9f0 013f 2aec 0a3f 8a75 bc39
000000a0: 08c4 5f3e 7d02 adbf deae 16bf d1cf c1bd
000000b0: dd30 acbe 31a3 1d3f dcf1 92bf 9969 273f
000000c0: 9ecc 723e 7011 2d3e 41ed a03e 5766 7d3e
000000d0: 0cdf debf 2040 45bd 9a6f bdbe 1327 e43e

l3.bias f4 [7]
0.089573085 0.045684014 0.49746886 -0.16106217 -0.24765135 -0.38447547 -0.16186155
00000000: 1872 b73d 291f 3b3d 3db4 fe3e 7bed 24be
00000010: 5198 7dbe f8d9 c4be 09bf 25be
