nicole.pth (torch, 5455 bytes, 6 tensors)

l1.weight f4 [8, 63]
-0.054005343 0.3252424 0.23822527 0.4972976 0.33553672 -0.38941732 0.12412317 0.9373699
0.12526895 0.28301063 -0.13974318 0.28469118 -0.123826586 -0.2792643 0.010212165 -0.21704605
-0.29507256 -0.09880455 0.62880003 -0.0885737 0.793849 -0.26840878 -0.31096402 -0.2969852
0.31351215 -0.21115288 0.353338 -0.3627799 -0.23591405 0.59224737 -0.2198794 0.11583998
0.2894531 0.41268742 0.13840923 -0.3358526 -0.27599722 0.2603627 0.31312114 0.1370249
0.67234325 0.31868282 0.136178 -0.14786902 -0.2785974 0.048380494 0.734688 -0.61409813
-0.35728952 0.39934412 -0.22376987 -0.23417504 0.027356088 0.8748887 0.0934684 -0.10378821
0.24929735 -0.61738616 -0.012532589 -0.29195288 -0.23067741 0.5858015 -0.1148759 -0.21343258
0.28189564 0.16987413 0.41661966 0.012674844 -0.31152424 0.028611775 1.1086968 -0.27111262
0.05730206 0.122373 0.09968351 -0.08401701 -0.26796013 -0.16527396 -0.17532349 -0.27301067
-0.18262546 -0.1223823 0.033275794 1.014048 -0.14059809 -0.11054958 -0.078431934 -0.2525816
-0.15639952 -0.22807004 -0.31434005 0.10957951 0.35797566 -0.13275419 -0.1063645 0.076692194
0.23521905 -0.2832947 0.022965863 -0.29486832 0.04587864 0.09265166 0.07964264 0.01677829
0.2553873 0.37382278 -0.43001476 -0.09711736 -0.075942844 0.7411667 -0.6330196 -0.07519545
0.3953247 -0.09838475 -0.08637224 -0.005239489 0.57662874 -0.062792405 -0.34527355 0.18343958
0.26017392 -0.16556711 -0.25311396 -0.14643985 0.3296166 -0.36033046 0.18989407 -0.12976003
0.2022852 0.5733165 0.3479868 0.042877905 0.22988756 -0.96313626 0.13105099 0.21552315
-0.2694921 0.1559988 0.17596434 0.09530054 0.53153265 -0.22909634 -0.11126634 0.022823067
0.3203806 0.16950746 -0.4607359 0.08456527 0.058141883 0.06512789 0.2438218 0.074327245
0.08955833 0.020179817 -0.0066972733 0.6392385 -0.26579323 0.2518985 -0.24601623 0.22804116
0.0023705987 -0.17987244 0.25460663 0.06588619 -0.22938004 -0.12798327 0.42917463 -0.310374
-0.022947175 0.65426165 -0.16570237 0.37934625 -0.7247913 0.4776505 -0.11129375 0.07822366
-0.15424456 -0.30512446 0.2664897 0.6340282 -0.19662003 0.20520869 -0.01097123 -0.5563764
0.44493988 0.0038686441 0.1061758 0.29116952 0.4139146 0.50038624 -0.37822875 0.006367144
0.34036228 -0.046828616 0.4881804 -0.22885606 -0.83575946 0.043921582 -0.017888185 -0.1308144
-0.16221261 0.3381477 0.641508 0.09309568 0.34971774 0.4506672 0.4655013 -0.14887239
0.5658729 -0.6810554 0.6441059 0.61506414 0.6032783 0.033995967 0.53266525 -0.24951336
0.4508313 0.07387182 0.33195332 0.2806642 0.074763164 -0.26125747 0.32551214 0.050531846
-0.14668685 0.2061397 -0.18553984 -0.2533161 -0.12858427 -0.282633 -0.24257089 -0.12133036
0.5381691 0.4592932 0.2232078 -0.6897713 0.38624156 0.49756348 0.4521366 -0.13232082
0.2972166 0.059774682 0.49123126 -0.021078823 0.39262098 -0.20059584 -0.39755267 0.11150836
0.6602452 0.5272436 0.16260906 0.4520496 0.06095819 0.5622338 0.32291704 0.3843963
00000000: b534 5dbd 2c86 a63e 53f1 733e cb9d fe3e
00000010: 78cb ab3e b561 c7be 4a34 fe3d 79f7 6f3f
00000020: 8146 003e c5e6 903e d618 0fbe 0bc3 913e
00000030: cb98 fdbd bbfb 8ebe ed50 273c 5241 5ebe
00000040: c013 97be 0a5a cabd 0af9 203f 2166 b5bd
00000050: b039 4b3f e06c 89be ad36 9fbe 720e 98be
00000060: aa84 a03e 7638 58be b8e8 b43e 49be b9be
00000070: 7493 71be 869d 173f 1128 61be 833d ed3d
00000080: 3233 943e c44b d33e 26bb 0d3e dff4 abbe
00000090: 824f 8dbe 434e 853e 6a51 a03e 4150 0c3e
000000a0: b01e 2c3f 652a a33e 3f72 0b3e fa6a 17be
000000b0: 52a4 8ebe a02a 463d 8314 3c3f 8935 1dbf
000000c0: a7ee b6be d576 cc3e ee23 65be 95cb 6fbe
000000d0: e019 e03c b5f8 5f3f 5c6c bf3d ea8e d4bd
000000e0: ce47 7f3e 050d 1ebf 7d55 4dbc d97a 95be
000000f0: b336 6cbe 16f7 153f 0e44 ebbd 128e 5abe
00000100: a054 903e 7cf3 2d3e 2c4f d53e 26aa 4f3c
00000110: 1b80 9fbe 3e63 ea3c c7e9 8d3f 46cf 8abe
00000120: 91b5 6a3d b29e fa3d de26 cc3d 1c11 acbd
00000130: 1232 89be 943d 29be 0088 33be 0ec8 8bbe
00000140: 2b02 3bbe 92a3 fabd 334c 083d 53cc 813f
00000150: f2f8 0fbe d167 e2bd eca0 a0bd 6052 81be
00000160: 3227 20be 318b 69be 2ef1 a0be 396b e03d
00000170: 9648 b73e b7f0 07be a2d5 d9bd cc10 9d3d
00000180: 43dd 703e 010c 91be e822 bc3c fbf8 96be
00000190: 3eeb 3b3d 27c0 bd3d ae1b a33d a072 893c
000001a0: 20c2 823e b365 bf3e e52a dcbe 77e5 c6bd
000001b0: ec87 9bbd 1abd 3d3f 930d 22bf 1200 9abd
000001c0: 0068 ca3e f27d c9bd eee3 b0bd 05b0 abbb
000001d0: f19d 133f 4e99 80bd b2c7 b0be 96d7 3b3e
000001e0: 8435 853e 6d8a 29be 2798 81be 54f4 15be
000001f0: 82c3 a83e 3c7d b8be 9773 423e d0df 04be
00000200: da23 4f3e dfc4 123f 532b b23e bea0 2f3d
00000210: a567 6b3e 1990 76bf 3b32 063e 1ab2 5c3e
00000220: defa 89be 26be 1f3e ff2f 343e ee2c c33d
00000230: 8612 083f 3b98 6abe 9bdf e3bd 71f7 ba3c
00000240: ed08 a43e 5d93 2d3e 93e5 ebbe 8e30 ad3d
00000250: 2f26 6e3d c561 853d 6cac 793e e238 983d
00000260: 5c6a b73d 2550 a53c cd74 dbbb 22a5 233f
00000270: 0d16 88be d7f8 803e aeeb 7bbe 9f83 693e
00000280: 0c5c 1b3b 7b30 38be cd5b 823e 57ef 863d
00000290: 9ae2 6abe 0c0e 03be c7bc db3e 57e9 9ebe
000002a0: b7fb bbbc b17d 273f e2ad 29be ac39 c23e
000002b0: ec8b 39bf 9b8e f43e faed e3bd ba33 a03d
000002c0: 49f2 1dbe 4639 9cbe 5771 883e ac4f 223f
000002d0: c356 49be 3a22 523e adc0 33bc af6e 0ebf
000002e0: 29cf e33e 1489 7d3b b372 d93d 2c14 953e
000002f0: 9dec d33e 5019 003f 33a7 c1be 7aa3 d03b
00000300: f743 ae3e 5dcf 3fbd c8f2 f93e 3e59 6abe
00000310: 55f4 55bf 1ee7 333d 3e8a 92bc 36f4 05be
00000320: 101b 26be b221 ad3e de39 243f f3a8 be3d
00000330: 340e b33e dabd e63e 3056 ee3e 0172 18be
00000340: 0cdd 103f a659 2ebf 20e4 243f d874 1d3f
00000350: 7270 1a3f 5b3f 0b3d c05c 083f 6e80 7fbe
00000360: 5cd3 e63e 1c4a 973d c9f5 a93e 38b3 8f3e
00000370: 6e1d 993d 8ac3 85be 87a9 a63e 7bfa 4e3d
00000380: 1435 16be 4916 533e 28fe 3dbe a6b2 81be
00000390: 98ab 03be 46b5 90be 8164 78be 0d7c f8bd
000003a0: 73c5 093f 7a28 eb3e 9690 643e da94 30bf
000003b0: 74c1 c53e a4c0 fe3e 737e e73e 1c7f 07be
000003c0: c62c 983e 4cd6 743d aa82 fb3e 7fad acbc
000003d0: 9e05 c93e ff68 4dbe 068c cbbe 7f5e e43d
000003e0: d405 293f 70f9 063f fd82 263e 0c73 e73e
000003f0: 4caf 793d 8eee 0f3f 6255 a53e 98cf c43e

l1.bias f4 [8]
0.6366427 0.914637 0.4608028 0.68108696 0.592105 0.8648621 0.4721499 0.5437078
00000000: 04fb 223f a725 6a3f 58ee eb3e b75b 2e3f
00000010: 3194 173f 9a67 5d3f a2bd f13e 6f30 0b3f

l2.weight f4 [8, 8]
-0.29555124 0.21244445 0.08514342 0.12297547 0.06586254 -0.34825486 -0.01227513 -0.04737681
-0.9247927 -1.106281 -0.18332458 0.6818694 -0.36765414 0.07892311 0.2422716 0.66878486
1.2557203 1.0651383 0.7720968 -0.29190838 0.8998138 -0.65073884 0.076757066 -0.7466627
0.10326591 -0.45903295 1.4043736 0.12031148 1.0134292 -0.5421672 0.38536468 0.15370212
0.4773863 0.77192724 -1.1356663 -1.133392 0.037571434 0.32786086 1.280834 -0.24046755
-0.15838218 -0.4530922 0.6391243 0.12762244 0.36964488 -0.20181544 1.259416 0.3729706
1.0556881 0.7927459 0.9036051 0.7493862 0.8602861 0.6323733 -0.47569132 -0.44839978
-0.7526736 -0.2561877 1.0920599 1.3571758 -0.14778623 1.2282293 0.34345514 1.377182
00000000: 7e52 97be 0a8b 593e ac5f ae3d 90da fb3d
00000010: f0e2 863d 764e b2be a01d 49bc 300e 42bd
00000020: 37bf 6cbf 9e9a 8dbf 70b9 3bbe fe8e 2e3f
00000030: 2a3d bcbe 71a2 a13d 0c16 783e 7c35 2b3f
00000040: 71bb a03f 7456 883f 23a8 453f 0475 95be
00000050: 325a 663f d296 26bf cf32 9d3d 4925 3fbf
00000060: 147d d33d 5e06 ebbe 84c2 b33f dd65 f63d
00000070: 0cb8 813f 78cb 0abf 854e c53e 1764 1d3e
00000080: fa6b f43e 069d 453f 835d 91bf fd12 91bf
00000090: 81e4 193d 61dd a73e 5ef2 a33f 203d 76be
000000a0: f02e 22be b3fb e7be a69d 233f 75af 023e
000000b0: 1842 bd3e b5a8 4ebe 8b34 a13f 01f6 be3e
000000c0: ca20 873f 65f1 4a3f aa52 673f c6d7 3f3f
000000d0: b63b 5c3f 37e3 213f d08d f3be a894 e5be
000000e0: 38af 40bf 092b 83be 9ec8 8b3f f0b7 ad3f
000000f0: 4655 17be 9e36 9d3f 5ad9 af3e 8047 b03f

l2.bias f4 [8]
-0.2540934 -0.3168427 0.24671812 -0.16724512 0.4537344 -0.3303883 0.16971071 0.7127038
00000000: 8818 82be 3539 a2be ada3 7c3e 4e42 2bbe
00000010: e04f e83e a828 a9be a5c8 2d3e c273 363f

l3.weight f4 [7, 8]
0.20872661 1.0965418 -0.43506798 -0.7627742 -0.6002011 0.40278995 -1.090538 0.4888188
0.16295967 -0.22337262 0.62364984 -1.1611292 0.8985457 -1.0791844 0.16894391 -1.1466463
0.121094376 -1.5670109 -1.207653 -1.0458584 -0.73677015 -1.0103079 0.481551 0.8198239
-0.23238811 -0.9106011 -0.988147 -0.69686395 0.74352485 0.48748997 -1.2911879 0.2018938
0.1422674 -1.4339924 -0.08239776 0.52242327 0.419759 0.4070179 -0.10818104 -0.9479712
-0.17272098 -0.7473298 0.019130263 0.5293732 -1.1422182 0.57295287 -0.47767028 -0.006843772
0.3504379 -0.88635665 0.3821116 0.33174518 -1.2697936 -0.94311726 0.71858495 -0.5446607
00000000: 6ebc 553e 7b5b 8c3f 3bc1 debe 2c45 43bf
00000010: c7a6 19bf 7c3a ce3e c096 8bbf 7546 fa3e
00000020: e6de 263e cbbb 64be 84a7 1f3f e29f 94bf
00000030: 1707 663f b722 8abf a2ff 2c3e 4ec5 92bf
00000040: 5400 f83d d093 c8bf 6094 9abf b0de 85bf
00000050: f89c 3cbf c551 81bf da8d f63e fbdf 513f
00000060: 26f7 6dbe 271d 69bf 34f7 7cbf ad65 32bf
00000070: a557 3e3f 4998 f93e a545 a5bf 40bd 4e3e
00000080: 8cae 113e 108d b7bf 28c0 a8bd 88bd 053f
00000090: a7ea d63e a664 d03e 058e ddbd 3eae 72bf
000000a0: c5dd 30be 0151 3fbf 12b7 9c3c 0185 073f
000000b0: 3534 92bf 0aad 123f 3391 f4be b841 e0bb
000000c0: 996c b33e 45e8 62bf 22a4 c33e 81da a93e
000000d0: 9988 a2bf 2270 71bf 2ff5 373f e26e 0bbf

l3.bias f4 [7]
-0.48355928 0.3630684 0.60997516 -0.13569345 -0.33160996 -0.46684816 0.11721308
00000000: 1595 f7be 1ae4 b93e 5527 1c3f 39f3 0abe
00000010: c8c8 a9be b906 efbe 690d f03d
